TF/checkpoint.pt (torch, 850050 bytes, 97 tensors)

rnn.weight_ih_l0 f4 [64, 512]
-0.120253816 -0.09518903 0.048585415 0.04158518 -0.04460206 -0.057945624 0.09666388 0.034442388
0.049774818 -0.078682326 -0.102100834 0.023876173 0.06703291 0.11449454 0.12028255 -0.013824746
-0.09714931 -0.07822603 -0.049351633 -0.054509502 -0.020298306 -0.0336637 0.10014429 0.07325792
-0.08766367 0.006344027 -0.027743362 0.0074263406 0.09424126 -0.10115334 -0.10441234 -0.089682534
0.096289024 -0.028909994 -0.12883349 -0.021083903 0.108360164 -0.07550476 -0.03225835 -0.069880314
0.010280436 -0.07479647 -0.10407545 -0.104389526 -0.004624266 -0.096529104 0.08588335 0.028450832
0.06575588 -0.016076053 0.10891155 0.1095342 -0.1317124 0.041731995 0.10294891 0.0036292698
-0.030989463 0.09648342 -0.107105546 0.026643287 0.029337503 -0.092766605 -0.0811472 0.07862604
0.02416365 -0.036617234 -0.0020713853 0.034886476 -0.007691101 0.03055829 0.060349178 0.011598107
0.061847 0.04108506 -0.06997613 0.034598958 0.002960232 0.040968187 -0.12754543 0.00027700939
0.082504004 -0.0028725874 0.10638644 -0.05477825 -0.0146212205 -0.025988333 -0.031549778 0.10500089
0.07991425 0.060406156 -0.11586895 -0.10727166 0.14116877 0.09693964 0.03550672 -0.072333805
-0.02111732 0.03925602 -0.03900317 -0.08868647 -0.023061888 0.011807577 -0.06902474 -0.020742223
0.0628231 0.056373503 0.07847209 -0.044286128 0.0319374 0.08221919 0.08640504 -0.0032232231
-0.0048647947 0.112791725 -0.060337745 -0.07981451 -0.0077529545 -0.1287238 0.055461276 0.042677835
0.088291034 -0.045444958 -0.01795824 -0.06837497 0.056606736 0.101489544 -0.07374943 -0.051838204
-0.05571108 0.059035752 -0.11560275 0.01114715 0.14060304 0.057571813 -0.008844133 0.057092983
-0.07532339 0.077998005 0.021613682 0.008043898 -0.033016432 -0.018788647 -0.018391315 -0.051843286
-0.020457692 0.037209596 -0.030402532 -0.08953178 0.07838617 0.10323967 0.13823447 0.023960011
0.117440164 0.06272657 0.14352167 -0.114924274 -0.029191876 0.10485819 0.035500813 -0.099069044
0.028668985 0.12933439 -0.0021020966 0.03532441 -0.09192993 -0.086923994 -0.10931212 0.03123227
0.0012367958 0.114518456 0.07597931 -0.021250073 0.042303145 0.12884451 0.11416495 -0.11788087
-0.07224935 -0.05132821 0.037498564 0.021473963 0.050484948 -0.08106308 -0.11366275 0.035055563
0.0071248882 0.0061853384 -0.08460088 -0.0013757204 -0.0244178 -0.101359814 0.048046045 -0.030596644
0.024960909 0.031026844 0.09213884 -0.0032130603 0.0940423 -0.0067222305 0.12143662 0.1216867
-0.10913116 0.040118154 0.13727677 0.005769265 0.034061346 0.10210483 0.0027183627 0.11941405
0.09357031 0.035892542 0.10259772 0.03821738 -0.11749383 -0.04642611 -0.02929718 -0.08562972
0.103146315 -0.055843346 -0.053785075 -0.1054362 -0.10357794 0.09176805 0.11448325 -0.07270684
-0.0431784 -0.08588583 -0.029218826 0.11137522 0.00056547567 -0.04248064 0.10381219 0.04251462
-0.058606148 0.09449043 0.062398527 0.09028763 -0.04611317 0.114729755 -0.012191375 -0.067195654
0.107621744 -0.0044964314 0.1080852 0.018566955 0.027011989 0.12934665 0.13005637 0.06067259
-0.08459706 -0.10461281 0.127004 0.028219566 0.04128104 -0.06415746 0.09392396 0.05168325
00000000: a247 f6bd 77f2 c2bd 8001 473d 3955 2a3d
00000010: a6b0 36bd 6458 6dbd b6f7 c53d 7613 0d3d
00000020: aee0 4b3d 3324 a1bd 3e1a d1bd f797 c33c
00000030: 8d48 893d 1d7c ea3d b356 f63d 3081 62bc
00000040: 38f6 c6bd f834 a0bd f024 4abd 5b45 5fbd
00000050: a248 a6bc f3e2 09bd 7318 cd3d 4008 963d
00000060: 0389 b3bd 8ee1 cf3b 0c46 e3bc a958 f33b
00000070: 9001 c13d 7b29 cfbd 23d6 d5bd 7aab b7bd
00000080: 2e33 c53d a7d4 ecbc edec 03be 26b8 acbc
00000090: efeb dd3d 3da2 9abd 5521 04bd 691d 8fbd
000000a0: 466f 283c e42e 99bd 8225 d5bd 2dca d5bd
000000b0: 2887 97bb 0db1 c5bd 9ce3 af3d b811 e93c
000000c0: 05ab 863d edb1 83bc 050d df3d 7753 e03d
000000d0: 9edf 06be 2bef 2a3d e1d6 d23d 0bd9 6d3b
000000e0: 9ddd fdbc 1999 c53d 275a dbbd 0643 da3c
000000f0: 3455 f03c 6bfc bdbd 8130 a6bd b006 a13d
00000100: d9f2 c53c f4fb 15bd 14c0 07bb 1fe5 0e3d
00000110: a205 fcbb 6155 fa3c b330 773d fd05 3e3c
00000120: 4853 7d3d cf48 283d a54f 8fbd a3b7 0d3d
00000130: 7400 423b 42ce 273d 459b 02be 923b 9139
00000140: dcf7 a83d 0542 3cbb 22e1 d93d 295f 60bd
00000150: d88d 6fbc 7ce5 d4bc 573a 01bd b50a d73d
00000160: 15aa a33d 726c 773d b34c edbd 3eb1 dbbd
00000170: 8c8e 103e 4a88 c63d 7f6f 113d bf23 94bd
00000180: 3bfe acbc ecca 203d cac1 1fbd 41a1 b5bd
00000190: 49ec bcbc 9174 413c d85c 8dbd 98eb a9bc
000001a0: 66a9 803d e7e7 663d fab5 a03d 5f65 35bd
000001b0: cbd0 023d 8962 a83d 20f5 b03d b63c 53bb
000001c0: db68 9fbb 59ff e63d b624 77bd ca75 a3bd
000001d0: 7f0c febb 2cd0 03be 5d2b 633d f4ce 2e3d
000001e0: eed1 b43d 7e24 3abd 291d 93bc 2d08 8cbd
000001f0: 77dc 673d c0d9 cf3d f109 97bd 4c54 54bd
00000200: 4d31 64bd 79cf 713d 22c1 ecbd 89a2 363c
00000210: 3efa 0f3e 6cd0 6b3d fbe6 10bc 55da 693d
00000220: 2643 9abd 6bbd 9f3d 2d0f b13c 8eca 033c
00000230: 3d3c 07bd a6ea 99bc 62a9 96bc a059 54bd
00000240: e496 a7bc 1769 183d bb0e f9bc 705c b7bd
00000250: ee88 a03d 526f d33d 568d 0d3e c947 c43c
00000260: 7884 f03d ca76 803d 58f7 123e 6b5d ebbd
00000270: cd23 efbc e4bf d63d 4d69 113d b6e4 cabd
00000280: 38db ea3c 3c70 043e 54c3 09bb 54b0 103d
00000290: c245 bcbd 3505 b2bd 08df dfbd d1da ff3c
000002a0: fb1b a23a a788 ea3d 0a9b 9b3d a214 aebc
000002b0: 1046 2d3d d1ef 033e 50cf e93d 876b f1bd
000002c0: 78f7 93bd 873d 52bd 1898 193d 2aea af3c
000002d0: 4ec9 4e3d 6604 a6bd 04c8 e8bd 6c96 0f3d
000002e0: e577 e93b 61ae ca3b 3a43 adbd 8451 b4ba
000002f0: d707 c8bc bc95 cfbd eecb 443d d0a5 fabc
00000300: d27a cc3c 022c fe3c 4ab3 bc3d 3592 52bb
00000310: 4099 c03d 2846 dcbb c3b3 f83d e036 f93d
00000320: 2880 dfbd ef52 243d 4892 0c3e 1a0c bd3b
00000330: e983 0b3d 561c d13d 8f26 323b 5a8f f43d
00000340: caa1 bf3d 0f04 133d c11e d23d d489 1c3d
00000350: 9ba0 f0bd 4e29 3ebd a400 f0bc a25e afbd
00000360: 603e d33d febb 64bd bd4d 5cbd efee d7bd
00000370: ac20 d4bd e3f0 bb3d 3276 ea3d 53e7 94bd
00000380: d5db 30bd e9e4 afbd 525c efbc b118 e43d
00000390: 6e3c 143a 2e00 2ebd 7c9b d43d cf23 2e3d
000003a0: 000d 70bd 3384 c13d 9995 7f3d b9e8 b83d
000003b0: 2ae1 3cbd 6ff7 ea3d 55be 47bc e09d 89bd
000003c0: ca68 dc3d cd56 93bb c65b dd3d ba19 983c
000003d0: 3f48 dd3c 7373 043e 7f2d 053e d283 783d
000003e0: 3941 adbd 3e3f d6bd 560d 023e b82c e73c
000003f0: 4f16 293d fd64 83bd 355b c03d d1b1 533d

rnn.weight_hh_l0 f4 [64, 64]
-0.02140205 -0.07262803 0.105835535 0.076122046 0.0802477 -0.00057299074 0.124513 -0.054511014
-0.09769369 0.108348556 0.11023325 0.02120184 -0.11834284 0.11529148 -0.04677468 0.05337202
0.025906788 0.013552923 -0.040184885 0.07132561 -0.084267475 -0.055263713 0.1403213 -0.009027193
0.07093037 0.034026008 -0.0505359 -0.0584121 -0.09079166 0.011391057 -0.042795382 0.0564016
0.021288747 0.10933849 0.04271876 0.11742684 0.1099514 0.049253274 0.13922763 0.0086614005
0.080281846 0.065667935 0.12273754 -0.025377005 -0.029914543 0.070913635 0.05490986 0.00554076
0.0150858415 0.0375222 0.031216426 -0.065988384 0.07576439 0.084764846 0.055396866 0.106648624
0.0100320345 0.042943574 -0.066731825 -0.057871446 0.106041156 0.13254836 0.11507368 0.07367612
0.09234371 -0.054468386 -0.033386163 0.090221696 0.011583825 0.09214555 -0.009458697 -0.022012496
-0.07310816 -0.07318825 -0.0939154 -0.141337 0.06925884 0.06473411 -0.08721105 -0.12608914
0.099822536 -0.019324617 0.1114158 -0.10103155 0.10819495 0.07518614 0.040596817 0.04972383
0.05324823 -0.0053179967 0.133007 -0.060660392 -0.036265913 -0.06005775 -0.064767934 0.08622126
-0.019541206 0.100726955 0.11676703 -0.07559193 -0.085717306 0.036525365 0.15537772 -0.0037506903
-0.013817717 -0.107889645 -0.02224909 -0.08720274 -0.027062792 0.09239382 0.13661617 0.034440324
-0.09930609 -0.106212705 -0.11697573 -0.061593678 0.0130988285 0.07170299 -0.06821507 0.08145266
0.0077523426 0.051799264 -0.08219884 0.07928315 0.05854525 -0.035670783 0.14201476 -0.056507166
-0.105805956 -0.01506743 -0.028448617 -0.08009593 0.09700439 0.046305254 -0.015473543 -0.0056962534
-0.03989961 0.06635322 -0.008834152 0.050844394 0.054588545 -0.038575917 0.10088565 -0.014116322
-0.1020467 0.06785285 0.06831608 -0.014619446 -0.092761025 0.095769174 0.056965914 0.024417778
0.067210265 -0.087492876 0.06061907 -0.0047702123 0.090031035 0.05324844 0.099414416 0.12169417
0.011879907 0.046998534 -0.056198467 -0.07319284 0.08505495 -0.078920245 0.10577485 0.11613206
0.0034472204 0.059339408 0.11837114 -0.060567856 0.060621835 -0.082107246 0.066108726 -0.0019877302
-0.0010824659 -0.107460454 -0.021143986 0.114467226 -0.013674748 -0.047503512 0.09468173 -0.039235372
0.022783669 -0.007965337 -0.021819381 0.031204162 0.058653202 -0.005024816 0.0901185 0.04034257
-0.06428013 -0.01788953 -0.0939224 0.079419784 0.12431898 0.044830482 0.077066764 -0.06516196
-0.09694422 0.072249636 -0.00430553 0.04357673 -0.11166612 0.092452794 0.02791775 -0.12746216
0.0075743934 0.05487678 -0.017704481 -0.035619702 -0.039147533 0.124509655 0.13425958 -0.08374796
0.12680094 0.0766171 0.09190918 0.01698455 0.090024754 0.06841061 -0.046490613 0.06371798
0.07777569 0.08825629 0.05025512 0.0074725472 0.14859691 0.11494675 -0.03813152 0.0978668
0.07989855 0.09486967 0.0043595647 0.060282238 -0.11169433 0.13664626 -0.117966644 -0.077905856
-0.038821794 0.009662731 0.09644532 0.09931506 0.023490906 0.022293959 -0.067676894 -0.060204256
0.12352393 0.057926666 0.13013381 -0.0026068971 -0.004256623 -0.047761925 -0.110234134 0.09426675
00000000: 5a53 afbc 01be 94bd 4dc0 d83d e0e5 9b3d
00000010: e858 a43d c234 16ba ac00 ff3d f146 5fbd
00000020: a113 c8bd d9e5 dd3d f8c1 e13d 7baf ad3c
00000030: bb5d f2bd f11d ec3d cf96 3fbd 9f9c 5a3d
00000040: 793a d43c 140d 5e3c e898 24bd 2913 923d
00000050: 6d94 acbd 345c 62bd 63b0 0f3e cbe6 13bc
00000060: f143 913d db5e 0b3d bbfe 4ebd 8741 6fbd
00000070: faf0 b9bd 8ea1 3a3c 364a 2fbd 5d05 673d
00000080: bd65 ae3c dcec df3d def9 2e3d 7c7d f03d
00000090: 332e e13d cdbd 493d b091 0e3e 8ce8 0d3c
000000a0: cf6a a43d e97c 863d d25d fb3d 70e3 cfbc
000000b0: 580f f5bc 2b3b 913d 29e9 603d 438f b53b
000000c0: 9b2a 773c e1b0 193d 97b9 ff3c eb24 87bd
000000d0: 5c2a 9b3d 3199 ad3d d3e7 623d 986a da3d
000000e0: 675d 243c 9ae5 2f3d b2aa 88bd 9c0a 6dbd
000000f0: 1b2c d93d c2ba 073e c0ab eb3d 81e3 963d
00000100: b31e bd3d 3e1a 5fbd eebf 08bd 27c6 b83d
00000110: 15ca 3d3c ceb6 bc3d a7f8 1abc 8d53 b4bc
00000120: bbb9 95bd b9e3 95bd b856 c0bd a6ba 10be
00000130: 94d7 8d3d 5193 843d b59b b2bd 831d 01be
00000140: c26f cc3d a94e 9ebc f82d e43d a1e9 cebd
00000150: 5095 dd3d 31fb 993d d948 263d 37ab 4b3d
00000160: d11a 5a3d 9742 aebb fd32 083e 0877 78bd
00000170: 918b 14bd 1eff 75bd 0da5 84bd c694 b03d
00000180: e114 a0bc ef49 ce3d 8d23 ef3d f1cf 9abd
00000190: 8e8c afbd 9f9b 153d 561b 1f3e 24ce 75bb
000001a0: b563 62bc 3ff5 dcbd b943 b6bc 5a97 b2bd
000001b0: cab2 ddbc f938 bd3d 1ce5 0b3e 4c11 0d3d
000001c0: fe60 cbbd 0c86 d9bd f990 efbd a749 7cbd
000001d0: 789c 563c 04d9 923d 58b4 8bbd a7d0 a63d
000001e0: 5d07 fe3b 772b 543d de57 a8bd 345f a23d
000001f0: 25cd 6f3d 871b 12bd 516c 113e 0f74 67bd
00000200: cbb0 d8bd 62dd 76bc 130d e9bc 5609 a4bd
00000210: 3daa c63d 94aa 3d3d be84 7dbc a3a7 babb
00000220: c66d 23bd 32e4 873d 1ebd 10bc 3642 503d
00000230: 3d98 5f3d c801 1ebd 239d ce3d 2548 67bc
00000240: dcfd d0bd 6ff6 8a3d 4de9 8b3d 6786 6fbc
00000250: 7ef9 bdbd a122 c43d 1755 693d cb07 c83c
00000260: 89a5 893d 772f b3bd b44b 783d 714f 9cbb
00000270: 3162 b83d 091b 5a3d c999 cb3d cb3a f93d
00000280: f1a3 423c 8981 403d 5d30 66bd 21e6 95bd
00000290: 4a31 ae3d f0a0 a1bd 7ca0 d83d a5d6 ed3d
000002a0: c3ea 613b e10d 733d 916c f23d 0016 78bd
000002b0: 9a4e 783d d827 a8bd 0364 873d 9444 02bb
000002c0: 87e1 8dba 3a14 dcbd 2736 adbc cb6d ea3d
000002d0: 0d0c 60bc 0b93 42bd 7fe8 c13d 45b5 20bd
000002e0: d1a4 ba3c 0b81 02bc 8fbe b2bc df9f ff3c
000002f0: 573e 703d 36a7 a4bb 0c90 b83d 403e 253d
00000300: 4da5 83bd 108d 92bc 635a c0bd d7a6 a23d
00000310: f39a fe3d 2ba0 373d 2ed5 9d3d a273 85bd
00000320: b18a c6bd 9ef7 933d 6715 8dbb 837d 323d
00000330: 35b1 e4bd e457 bd3d c4b3 e43c 7185 02be
00000340: 9e32 f83b 79c6 603d fd08 91bc f7e5 11bd
00000350: 2a59 20bd ebfe fe3d 587b 093e 0d84 abbd
00000360: 1bd8 013e 6de9 9c3d e13a bc3d 2f23 8b3c
00000370: e65e b83d dd1a 8c3d f16c 3ebd 937e 823d
00000380: dc48 9f3d b7bf b43d 50d8 4d3d 45dc f43b
00000390: ca29 183e 3469 eb3d cc2f 1cbd 646e c83d
000003a0: daa1 a33d 084b c23d aeda 8e3b 82ea 763d
000003b0: ffbf e4bd ffec 0b3e 7f98 f1bd 1b8d 9fbd
000003c0: 9a03 1fbd 6e50 1e3c 2085 c53d b265 cb3d
000003d0: 0070 c03c d2a1 b63c 2f9a 8abd bd98 76bd
000003e0: 1dfa fc3d 8344 6d3d cc41 053e 7ad8 2abb
000003f0: 247b 8bbb 02a2 43bd 6fc2 e1bd ed0e c13d

rnn.bias_ih_l0 f4 [64]
-0.015796857 -0.038103387 -0.08779952 -0.044270553 0.0022489675 -0.07801822 -0.014191119 -0.0007206968
-0.06100985 -0.017753748 0.0036100151 0.12428625 -0.040096886 0.042696208 -0.12260514 -0.008975616
-0.12002441 -0.04141372 0.008508177 0.010601986 0.073983155 -0.045360893 -0.07312539 -0.07476176
-0.13274662 -0.059655786 -0.035667397 0.00044661466 0.027859151 0.00837003 0.025865449 0.0813578
0.029295083 -0.12421578 0.072611004 0.101321906 0.03543009 -0.14006917 -0.11004224 -0.021335961
-0.020972334 0.0013244448 -0.068482496 0.049696997 -0.015633192 0.089371696 -0.11508695 0.04480332
-0.05563944 -0.041291606 -0.12809253 -0.011152951 -0.06872521 -0.006350622 0.02745849 -0.07135244
-0.09264263 0.0048770225 -0.13302292 -0.003330209 0.013803053 -0.10180112 -0.04519767 -0.012197847
00000000: 6968 81bc 4c12 1cbd 3cd0 b3bd 0a55 35bd
00000010: 6a63 133b 04c8 9fbd de81 68bc 25ed 3cba
00000020: 77e5 79bd 4f70 91bc 0196 6c3b ca89 fe3d
00000030: a23c 24bd 38e2 2e3d 6718 fbbd 760e 13bc
00000040: 5ccf f5bd 6fa1 29bd e165 0b3c f4b3 2d3c
00000050: 7b84 973d 58cc 39bd c4c2 95bd b21c 99bd
00000060: bbee 07be a059 74bd fa17 12bd 9b27 ea39
00000070: e038 e43c 7322 093c c7e3 d33c eb9e a63d
00000080: 3efc ef3c d864 febd 14b5 943d dc81 cf3d
00000090: 241f 113d 4b6e 0fbe d35d e1bd c1c8 aebc
000000a0: 2cce abbc fe98 ad3a 8d40 8cbd 148f 4b3d
000000b0: 2e11 80bc 8208 b73d b5b2 ebbd b083 373d
000000c0: 2ee6 63bd 6321 29bd b02a 03be deba 36bc
000000d0: cebf 8cbd e118 d0bb a1f0 e03c 3a21 92bd
000000e0: 6bbb bdbd 6ecf 9f3b 2937 08be a33f 5abb
000000f0: 3326 623c 1b7d d0bd 3121 39bd 7ad9 47bc

rnn.bias_hh_l0 f4 [64]
0.04555557 -0.006671752 0.061300084 0.0126839755 0.025319412 0.05805673 0.007113656 0.050184652
-0.03205065 -0.12540331 -0.08133289 0.0080835745 0.03255065 -0.058832407 0.047586944 -0.0012089837
0.0351833 -0.03917302 -0.046919752 -0.060487516 -0.036076635 -0.0067131054 -0.08806621 -0.11530344
0.062859446 0.036251385 -0.013431806 -0.036625814 -0.11900867 0.05873646 0.049082045 -0.037789743
-0.025049422 -0.1401627 -0.040267862 0.005752466 -0.1235435 0.0071447715 -0.12056138 0.029303603
-0.057702366 0.0266732 0.044507626 0.095691 0.057755083 -0.032577883 -0.010919108 -0.102396354
-0.018950915 0.087985 -0.018141344 -0.0963972 0.06721386 -0.12256943 -0.0937504 0.05036948
0.031171141 0.0943349 0.09729141 -0.10712979 -0.03274681 -0.09503616 -0.119296305 -0.03344802
00000000: 7a98 3a3d b69e dabb cc15 7b3d 73d0 4f3c
00000010: a86a cf3c e5cc 6d3d ac19 e93b 6c8e 4d3d
00000020: 8b47 03bd ba69 00be dc91 a6bd f870 043c
00000030: d553 053d 40fa 70bd 87ea 423d c376 9eba
00000040: 5d1c 103d e373 20bd ed2e 40bd c2c1 77bd
00000050: 18c5 13bd 9cf9 dbbb 0f5c b4bd 3624 ecbd
00000060: 74bc 803d 557c 143d 1411 5cbc f304 16bd
00000070: d1ba f3bd a495 703d 410a 493d 6bc9 1abd
00000080: 7234 cdbc d086 0fbe eaef 24bd 2f7f bc3b
00000090: 6004 fdbd b01e ea3b e3e8 f6bd 1c0e f03c
000000a0: 5159 6cbd c181 da3c a14d 363d a5f9 c33d
000000b0: 9890 6c3d 6370 05bd 0fe6 32bc 2eb5 d1bd
000000c0: f33e 9bbc 7b31 b43d 289d 94bc e56b c5bd
000000d0: 6ca7 893d ae05 fbbd 3600 c0bd 3a50 4e3d
000000e0: 9f5a ff3c a832 c13d b840 c73d dd66 dbbd
000000f0: 8521 06bd 51a2 c2bd 9f51 f4bd cb00 09bd

rnn.weight_ih_l0_reverse f4 [64, 512]
0.1228116 0.13635308 -0.059639517 -0.053089235 -0.001875088 -0.06087714 -0.058410797 0.026831679
-0.036527097 0.044459876 -0.09187957 0.041528944 -0.13029018 -0.02103736 0.09936453 0.12449095
0.15588115 0.00564559 0.1207834 -0.06499616 -0.06367184 -0.0009814119 -0.037884604 -0.072292134
-0.038560763 5.9369304e-05 -0.015835745 0.08763407 0.08347769 -0.07992932 -0.03214374 0.12559192
0.09354341 0.08678 0.119948916 -0.11603916 0.022731408 0.0529373 -0.09645871 0.09215385
0.052758656 0.014489705 -0.068321094 -0.0911183 -0.077545635 -0.02625462 -0.0011616449 0.01707796
0.056759838 -0.112537876 -0.09331501 0.063438214 0.05517069 -0.06815035 -0.08784614 0.053712845
0.062364157 -0.08421062 -0.105167866 -0.07292632 -0.0065904907 0.094026044 0.10023411 0.026404927
0.1097189 -0.13672051 0.03585572 0.04300199 -0.07553913 0.10744664 0.023193039 -0.04151463
-0.062570095 0.02403119 -0.017071081 0.037982516 -0.12335788 -0.07170476 0.053313076 0.097023584
-0.020022463 0.15359285 0.010398079 -0.08570305 0.05587437 -0.08196314 0.07499673 0.034935612
-0.10462804 0.123199426 -0.014609556 -0.113149635 0.021687731 -0.07367409 0.11974018 -0.046700448
-0.12642871 0.06482969 -0.10169523 -0.054312203 0.05642781 0.0496856 -0.08223363 0.0299026
-0.0739054 -0.0394996 -0.012300957 0.038253568 -0.09081992 -0.013396999 -0.0191026 -0.08542709
0.096297905 -0.07324899 -0.060898528 -0.055933435 0.06406052 0.0011529557 -0.055252865 -0.02981239
-0.08814807 0.08790697 0.050240524 0.08702848 0.09684242 0.08325754 0.052703217 -0.058012202
0.035113204 0.013586085 -0.05750657 0.01121618 0.13605861 0.10347828 -0.09672025 0.13923831
-0.030468106 -0.0905713 0.022171948 0.13331202 0.063121974 0.081986204 0.10565173 0.092469715
0.06416841 0.088789955 0.08574882 0.08380963 -0.010841673 -0.026191968 0.016602483 0.12691948
-0.04213336 -0.039055295 -0.061018154 0.0048926543 0.06454163 -0.031146007 0.013013098 0.020082416
-0.030957455 0.096506394 -0.105278686 0.09869363 0.04449172 -0.13239531 0.0291357 0.0058315983
-0.11177616 -0.08194363 -0.08455632 -0.0021441695 -0.0023332776 0.068069555 0.009138338 -0.025643626
0.07577995 0.13945943 -0.00022122065 0.04119071 -0.07267511 -0.06952364 -0.0015205259 -0.0011439931
0.105564885 -0.0015499124 -0.06516671 -0.06573406 0.0594612 -0.086313166 0.1199136 -0.0036710831
0.056741066 0.0966856 -0.008735459 -0.04693249 -0.059184674 0.07893235 0.11080228 -0.040130075
-0.10847906 0.063843176 0.10758171 0.082386196 0.063084535 -0.11270761 -0.040644377 0.048706587
0.07649581 -0.03968081 -0.10022462 -0.07372648 -0.14519604 -0.10482028 -0.12916352 -0.0018350355
0.006538614 -0.12872669 0.03226843 -0.039671805 -0.07006255 0.075149655 0.033790257 -0.04600136
-0.029410478 0.056907285 -0.09958434 -0.0040273205 -0.095250234 -0.06491494 -0.07342295 -0.06273397
0.071174316 0.06957858 0.077817984 -0.092328936 -0.0189759 0.03245009 0.03250829 -0.02249294
0.035495304 0.14506526 0.051905215 0.09617445 -0.017420322 -0.030020868 0.10098756 -0.0021612335
0.116996996 -0.07176376 0.13726291 -0.031585436 0.042904124 -0.015644018 0.08872849 0.02845143
00000000: a684 fb3d 24a0 0b3e 9148 74bd 1974 59bd
00000010: 83c5 f5ba 4f5a 79bd 2940 6fbd 1cce db3c
00000020: 709d 15bd 8f1b 363d 5b2b bcbd 411a 2a3d
00000030: ca6a 05be 8b56 acbc a17f cb3d 1cf5 fe3d
00000040: 4f9f 1f3e a4fe b83b 4a5d f73d b51c 85bd
00000050: 6266 82bd b8a2 80ba e32c 1bbd e60d 94bd
00000060: e4f1 1dbd 4e03 7938 f7b9 81bc 7e79 b33d
00000070: 5af6 aa3d fcb1 a3bd 28a9 03bd 2b9b 003e
00000080: b093 bf3d b6b9 b13d c7a7 f53d f0a5 edbd
00000090: 3837 ba3c c8d4 583d 258c c5bd 28bb bc3d
000000a0: 7619 583d 3a66 6d3c eeeb 8bbd 3b9c babd
000000b0: 3fd0 9ebd ee13 d7bc 5642 98ba 14e7 8b3c
000000c0: 017d 683d 427a e6bd f11b bfbd e5eb 813d
000000d0: a9fa 613d 6992 8bbd ade8 b3bd 0002 5c3d
000000e0: 8f71 7f3d 9e76 acbd 4062 d7bd 655a 95bd
000000f0: 0bf5 d7bb ba90 c03d 8b47 cd3d 254f d83c
00000100: 4db4 e03d 7600 0cbe 73dd 123d db22 303d
00000110: 42b4 9abd fc0c dc3d 54ff bd3c 3f0b 2abd
00000120: c024 80bd 0fdd c43c a7d8 8bbc 8e93 1b3d
00000130: 0ea3 fcbd f2d9 92bd d05e 5a3d 4db4 c63d
00000140: 2606 a4bc 7247 1d3e b45c 2a3c 1585 afbd
00000150: 86dc 643d 4adc a7bd e397 993d a518 0f3d
00000160: 3a47 d6bd fb4f fc3d eb5c 6fbc ffba e7bd
00000170: 78aa b13c 71e2 96bd 573a f53d f848 3fbd
00000180: 8776 01be 6ec5 843d 9745 d0bd 7976 5ebd
00000190: d920 673d 2183 4b3d 1b6a a8bd 4cf6 f43c
000001a0: b75b 97bd 55ca 21bd f489 49bc c6af 1c3d
000001b0: cbff b9bd 167f 5bbc 0e7d 9cbc 66f4 aebd
000001c0: d637 c53d 9103 96bd bc70 79bd 751a 65bd
000001d0: 2932 833d c61e 973a d450 62bd 1d39 f4bc
000001e0: fa86 b4bd 9208 b43d 02c9 4d3d fd3b b23d
000001f0: 5255 c63d ee82 aa3d 54df 573d 349e 6dbd
00000200: ddd2 0f3d 2c98 5e3c 028c 6bbd 12c4 373c
00000210: f352 0b3e 6cec d33d 4415 c6bd 7d94 0e3e
00000220: 4098 f9bc 727d b9bd f2a1 b53c f282 083e
00000230: 1846 813d 62e8 a73d ef5f d83d c360 bd3d
00000240: ba6a 833d 82d7 b53d 149d af3d 62a4 ab3d
00000250: 46a1 31bc 8a90 d6bc ee01 883c 2ef7 013e
00000260: 0894 2cbd 72f8 1fbd 2cee 79bd 8f52 a03b
00000270: 672e 843d e925 ffbc e434 553c e183 a43c
00000280: 7d9a fdbc 25a5 c53d 5a9c d7bd e31f ca3d
00000290: f33c 363d a392 07be fead ee3c fe16 bf3b
000002a0: e6ea e4bd 10d2 a7bd dd2b adbd 3285 0cbb
000002b0: e7e9 18bb 0d68 8b3d f8b8 153c 9512 d2bc
000002c0: 8532 9b3d 74ce 0e3e 77f7 67b9 97b7 283d
000002d0: b0d6 94bd 6962 8ebd 624c c7ba 0af2 95ba
000002e0: 6732 d83d 6e26 cbba 2076 85bd 949f 86bd
000002f0: 968d 733d f5c4 b0bd 4395 f53d 8e96 70bb
00000300: 5269 683d 1a03 c63d 2c1f 0fbc 483c 40bd
00000310: a16b 72bd 49a7 a13d 4eec e23d 6f5f 24bd
00000320: 452a debd 36c0 823d cd53 dc3d 18ba a83d
00000330: 7732 813d 3fd3 e6bd b87a 26bd 8f80 473d
00000340: d6a9 9c3d 5888 22bd 9142 cdbd e9fd 96bd
00000350: 45ae 14be 04ac d6bd 7143 04be 9385 f0ba
00000360: df41 d63b eed0 03be e72b 043d e77e 22bd
00000370: f47c 8fbd 10e8 993d a767 0a3d ec6b 3cbd
00000380: 3eee f0bc 9d17 693d e0f2 cbbd 9df7 83bb
00000390: 8e12 c3bd 20f2 84bd c65e 96bd ab7a 80bd
000003a0: d7c3 913d 377f 8e3d 095f 9f3d f416 bdbd
000003b0: 5973 9bbc 63ea 043d 6a27 053d 1d43 b8bc
000003c0: 8663 113d fd8b 143e 909a 543d 1cf7 c43d
000003d0: 10b5 8ebc 53ee f5bc 91d2 ce3d 7ba3 0dbb
000003e0: 1f9c ef3d e1f8 92bd a68e 0c3e bb5f 01bd
000003f0: 3cbc 2f3d e227 80bc 48b7 b53d f912 e93c

rnn.weight_hh_l0_reverse f4 [64, 64]
0.020544188 -0.002780382 -0.01463641 -0.012200228 -0.08182797 -0.00795156 -0.021501677 -0.0023149552
-0.02562962 0.045786098 0.042753957 -0.045831997 -0.020578677 -0.030274995 0.042293712 0.08720943
0.033899177 0.08436983 0.0365419 -0.1004894 -0.026142068 0.031205015 0.021316826 -0.06244064
0.05212146 0.02778149 -0.028482255 0.061301928 0.06997498 0.114548855 0.071363665 -0.06634785
-0.09184486 0.0032686226 0.06187063 0.041471034 -0.10911096 -0.064281344 0.08221606 0.03415955
0.09631271 0.07373775 -0.04286622 0.031168982 0.13036525 0.022350155 -0.039357185 0.03798049
0.07767985 -0.019308778 -0.15536943 0.03896372 -0.01795333 0.15301007 -0.094311446 0.10079776
0.11579051 -0.07806736 0.021133885 -0.12881266 -0.033406597 -0.092391275 0.064956345 -0.04621034
-0.01371188 -0.112758115 -0.045419782 -0.036155123 -0.014140348 -0.1189295 0.034197323 0.12907064
-0.06966014 0.11178236 0.04398969 -0.047505535 0.06570341 -0.029966868 0.12927856 0.09112771
0.057092972 -0.010144136 0.10276805 -0.06452517 -0.036652613 -0.12411965 -0.08717841 0.08581475
-0.07581968 0.05480476 -0.04473647 -0.059674762 -0.0014001491 -0.06577372 -0.016783528 0.030387063
-0.077341735 0.14529076 0.044220306 0.1278075 0.12926489 -0.09134107 -0.11271118 -0.07617125
0.04072294 -0.035959084 0.08579479 0.0069222017 -0.13261317 -0.16199794 0.038161594 0.0779105
0.019696226 0.13943532 -0.102345884 0.015614827 -0.032395087 -0.14839724 -0.034026157 -0.004848386
-0.027481794 -0.107504465 0.12719102 0.067425095 0.044707604 -0.07703442 0.06608468 -0.09689318
-0.06346536 0.02943336 0.0024996838 0.055684794 -0.11564517 -0.08309644 0.0074704792 -0.07076984
-0.017346226 -0.08029903 -0.12487478 -0.12793134 0.0855415 -0.10335494 0.019683344 -0.03633021
-0.041462764 0.0558882 -0.0009033968 0.0037256605 0.095453605 0.105496414 -0.04859417 -0.09086062
-0.04647484 0.030211588 -0.07761422 0.0917942 0.06278433 0.10382761 -0.068596296 0.058379006
-0.07537461 0.11507252 0.05317792 0.06339534 0.0039966945 -0.13504677 -0.07360023 0.038138006
0.10377413 0.08939945 0.051316638 0.08009753 -0.0111165205 0.17128511 0.03092907 -0.11324673
0.07924286 0.023521477 0.0058080545 0.0017412456 0.11598818 0.11569428 0.15016311 -0.07060371
-0.10035223 -0.12443523 -0.08311208 -0.072571576 -0.088222966 -0.024805337 0.067658804 -0.04772164
0.1279304 0.031318482 0.09229567 0.099416666 -0.022441396 0.1322695 0.065948874 -0.022602722
-0.020109255 0.020314157 0.018872092 -0.115526095 -0.082707286 -0.028168075 0.06876674 -0.013406871
0.14821588 0.004968657 -0.08882949 -0.009070802 0.10620501 -0.055461824 0.10126018 -0.055685207
-0.071070045 -0.018813683 0.020536736 0.108806424 -0.005467374 0.0612099 0.09394608 0.08360857
0.0073171593 -0.061138615 0.08068592 -0.038897794 -0.047975715 -0.004566654 -0.11635421 0.031469718
-0.061003014 0.0941 0.0144293625 0.108944766 0.015387614 0.054860044 -0.025594374 0.0037541585
0.05363751 -0.10488798 -0.058732457 0.14803809 0.026663456 -0.032219715 -0.09579706 -0.072306946
0.0005734528 0.15830459 0.10008273 0.03961159 0.1434779 0.023083834 -0.049804334 -0.089228965
00000000: 494c a83c 1237 36bb 8ecd 6fbc 77e3 47bc
00000010: 6c95 a7bd 4347 02bc 4924 b0bc 81b6 17bb
00000020: 35f5 d1bc 348a 3b3d c61e 2f3d 55ba 3bbd
00000030: 9d94 a8bc 4403 f8bc 2c3c 2d3d dc9a b23d
00000040: ddd9 0a3d 17ca ac3d f6ac 153d 63cd cdbd
00000050: e427 d6bc a9a1 ff3c a0a0 ae3c c2c1 7fbd
00000060: 507d 553d 0296 e33c 9e53 e9bc bb17 7b3d
00000070: 0b4f 8f3d 9798 ea3d 1d27 923d 62e1 87bd
00000080: 2819 bcbd 6336 563b 0f6c 7d3d 88dd 293d
00000090: 9175 dfbd f0a5 83bd e560 a83d e2ea 0b3d
000000a0: 993f c53d d103 973d 7d94 2fbd 1856 ff3c
000000b0: 787e 053e ac17 b73c 0035 21bd 6e91 1b3d
000000c0: 9d16 9f3d 712d 9ebc 2a19 1fbe 6c98 1f3d
000000d0: dd12 93bc acae 1c3e 5c26 c1bd 0e6f ce3d
000000e0: 9323 ed3d c8e1 9fbd f820 ad3c 77e7 03be
000000f0: 5bd5 08bd a337 bdbd d507 853d 0e47 3dbd
00000100: cba7 60bc baed e6bd 180a 3abd 6517 14bd
00000110: ebac 67bc 4f91 f3bd 7e12 0c3d 182b 043e
00000120: faa9 8ebd 26ee e43d 882e 343d 2a95 42bd
00000130: 828f 863d 147d f5bc 9961 043e 2aa1 ba3d
00000140: 52da 693d 9733 26bc 0e78 d23d c625 84bd
00000150: 0d21 16bd 7132 febd 988a b2bd a5bf af3d
00000160: 5947 9bbd f57a 603d 973d 37bd 866d 74bd
00000170: 3585 b7ba 5fb4 86bd 9c7d 89bc 4aee f83c
00000180: 5865 9ebd 1ac7 143e 5a20 353d f8df 023e
00000190: 045e 043e 0711 bbbd 1ed5 e6bd acff 9bbd
000001a0: 19cd 263d d549 13bd 2eb5 af3d a3d3 e23b
000001b0: bfcb 07be cae2 25be 554f 1c3d 8a8f 9f3d
000001c0: fb59 a13c 22c8 0e3e b89a d1bd 55d5 7f3c
000001d0: b6b0 04bd 72f5 17be 035f 0bbd 36df 9ebb
000001e0: 8021 e1bc 4d2b dcbd 5d3e 023e 2b16 8a3d
000001f0: 521f 373d 39c4 9dbd 6857 873d ee6f c6bd
00000200: 20fa 81bd 3b1e f13c bcd1 233b bd15 643d
00000210: 60d7 ecbd 772e aabd ecca f43b c7ef 90bd
00000220: ac19 8ebc d173 a4bd 59be ffbd 6f00 03be
00000230: 6230 af3d c1ab d3bd f73e a13c fcce 14bd
00000240: dcd4 29bd 06eb 643d efd1 6cba 362a 743b
00000250: 2e7d c33d 810e d83d ae0a 47bd 2215 babd
00000260: 675c 3ebd 4b7e f73c 34f4 9ebd 99fe bb3d
00000270: 1295 803d 92a3 d43d 377c 8cbd d31e 6f3d
00000280: 015e 9abd 24ab eb3d 17d1 593d 6bd5 813d
00000290: b4f6 823b b349 0abe b8bb 96bd 9936 1c3d
000002a0: 8887 d43d 0f17 b73d 6531 523d 2c0a a43d
000002b0: 1122 36bc 5d65 2f3e f65e fd3c e7ed e7bd
000002c0: 154a a23d 1db0 c03c 7e51 be3b 823a e43a
000002d0: 368b ed3d 1ff1 ec3d 5cc4 193e ae98 90bd
000002e0: 7885 cdbd e6d7 febd ab36 aabd 68a0 94bd
000002f0: 3eae b4bd 9034 cbbc b390 8a3d c477 43bd
00000300: 3000 033e cf47 003d 8305 bd3d f79a cb3d
00000310: 05d7 b7bc a871 073e 3410 873d 5829 b9bc
00000320: 2abc a4bc e069 a63c a599 9a3c f298 ecbd
00000330: 7062 a9bd bcc0 e6bc 94d5 8c3d 7ea8 5bbc
00000340: e7c5 173e 1ed0 a23b 3cec b5bd b39d 14bc
00000350: 0382 d93d f02b 63bd 7f61 cf3d 2c16 64bd
00000360: 2c8d 91bd 271f 9abc a83c a83c e7d5 de3d
00000370: a827 b3bb 3bb7 7a3d cd66 c03d f83a ab3d
00000380: c8c4 ef3b 7c6c 7abd a93e a53d 4b53 1fbd
00000390: 2f82 44bd dfa3 95bb 1e4b eebd 64e6 003d
000003a0: 4cde 79bd 80b7 c03d 2269 6c3c 6f1e df3d
000003b0: 551c 7c3c edb4 603d 4bab d1bc 5408 763b
000003c0: 01b3 5b3d 82cf d6bd 7291 70bd 4c97 173e
000003d0: 526d da3c d2f8 03bd 4031 c4bd aa15 94bd
000003e0: c453 163a 991a 223e 2df8 cc3d c33f 223d
000003f0: dfeb 123e 4f1a bd3c a1ff 4bbd adbd b6bd

rnn.bias_ih_l0_reverse f4 [64]
-0.061827656 0.08068428 -0.004821397 0.018335303 -0.024266165 -0.058205094 0.032281313 0.12843218
0.030214569 -0.13676746 -0.088368535 -0.038353514 -0.092429556 -0.08586008 -0.06258712 0.04310656
-0.023201263 -0.12192134 0.067962945 0.054777335 0.08668805 0.00046365114 -0.122692026 -0.06940362
0.037603457 -0.029108498 0.013145598 0.059129514 0.12949589 -0.05278729 -0.14367875 0.033877093
0.019940065 0.019540396 -0.1472995 -0.023099406 0.037254762 -0.10547548 0.021863775 0.040423185
0.09692119 0.059153005 -0.025253994 -0.02021913 -0.10357432 -0.10380224 -0.025886405 -0.05070968
-0.07341486 0.10978508 0.059519216 0.07891438 -0.04927039 0.042926297 0.08085694 -0.10765239
0.064367175 0.010032128 0.049487974 0.034865163 -0.061900333 0.039916884 -0.03505545 -0.020420246
00000000: ff3e 7dbd cd3d a53d cffc 9dbb eb33 963c
00000010: d6c9 c6bc 7768 6ebd 6939 043d ba83 033e
00000020: 8b84 f73c c50c 0cbe 90fa b4bd 9318 1dbd
00000030: b54b bdbd 69d7 afbd ad2d 80bd 8190 303d
00000040: 9310 bebc e5b1 f9bd 2830 8b3d 335e 603d
00000050: 8189 b13d 3416 f339 f545 fbbd 7c23 8ebd
00000060: 1506 1a3d f274 eebc a260 573c ca31 723d
00000070: 929a 043e 7c37 58bd 8620 13be b5c2 0a3d
00000080: 5959 a33c 2e13 a03c aed5 16be f73a bdbc
00000090: 7398 183d 8703 d8bd a91b b33c c892 253d
000000a0: 9e7e c63d 6c4a 723d 77e1 cebc 97a2 a5bc
000000b0: c61e d4bd 4596 d4bd ba0f d4bc f4b4 4fbd
000000c0: 885a 96bd 00d7 e03d 6cca 733d dd9d a13d
000000d0: c0cf 49bd 7cd3 2f3d 5398 a53d db78 dcbd
000000e0: f0d2 833d cb5d 243c e7b3 4a3d c6ce 0e3d
000000f0: 348b 7dbd e37f 233d 4e96 0fbd 5c48 a7bc

rnn.bias_hh_l0_reverse f4 [64]
-0.060557667 -0.10249106 -0.1486858 0.016429158 0.10550436 0.010000646 0.042537075 0.020369882
-0.034874983 -0.072523385 0.050260846 0.012622986 -0.05485518 -0.061074357 -0.09787458 0.038843215
0.12558752 -0.017256629 -0.06914404 -0.108353086 -0.116787426 -0.023829814 0.07388667 0.06466375
0.06873754 -0.0903226 -0.12949656 0.08955491 -0.047457002 0.052009776 -0.12329878 0.099841714
-0.038496695 0.079365134 -0.0904691 0.0024368775 -0.0075553833 0.008340677 -0.07005007 0.118151516
-0.04897358 0.08442759 0.07100363 -0.063654535 -0.12349048 -0.119974025 -0.07099526 -0.029815983
-0.08391344 -0.114959404 -0.10072648 0.0995021 0.02476301 -0.112091444 0.020422058 -0.12725833
-0.02403208 0.13737868 0.0023771974 0.1175568 0.00656264 -0.123837106 0.040107083 -0.034091808
00000000: 510b 78bd d5e6 d1bd 1741 18be 7196 863c
00000010: ab12 d83d c0d9 233c 5b3b 2e3d bdde a63c
00000020: 12d9 0ebd 2487 94bd 51de 4d3d a4d0 4e3c
00000030: d3af 60bd 1b29 7abd 7872 c8bd 101a 1f3d
00000040: 049a 003e c65d 8dbc 649b 8dbd 39e8 ddbd
00000050: 3f2e efbd be36 c3bc e551 973d 6e6e 843d
00000060: 44c6 8c3d 0efb b8bd bf9a 04be 9168 b73d
00000070: 4662 42bd 3408 553d 1284 fcbd d079 cc3d
00000080: b6ae 1dbd 308a a23d dd47 b9bd 05b4 1f3b
00000090: 2693 f7bb 56a7 083c 6976 8fbd 6cf9 f13d
000000a0: 8598 48bd 5fe8 ac3d 5a6a 913d 4f5d 82bd
000000b0: 94e8 fcbd f1b4 f5bd f665 91bd a640 f4bc
000000c0: cfda abbd d66f ebbd af49 cebd c2c7 cb3d
000000d0: ccdb ca3c 3390 e5bd 294c a73c 0250 02be
000000e0: edde c4bc ffac 0c3e c1ca 1b3b 9fc1 f03d
000000f0: 6a0b d73b 4f9e fdbd 5347 243d daa3 0bbd

rnn.weight_ih_l1 f4 [64, 128]
-0.13779913 -0.09377863 0.061117284 -0.0023441655 -0.11180647 -0.04878191 0.033145115 0.053207412
-0.12595424 0.08535252 -0.06433315 -0.07149896 -0.0695214 0.07463903 -0.15026958 -0.09577313
0.036569808 0.10971242 -0.055507462 0.029261228 0.017779587 -0.07194907 0.01466103 -0.09850471
0.0019793706 0.012446647 0.07228825 0.10138899 -0.13011296 0.10354846 -0.012183366 -0.09662686
-0.013837261 0.090844825 -0.032363184 0.01730585 -0.09648234 0.045041442 0.010003865 0.061912514
-0.056376405 0.05884097 -0.11405969 0.06623663 0.07316134 0.037887655 -0.04386173 0.0038760982
0.1448551 -0.0063384078 0.07309086 -0.0017782314 0.10384473 0.059272934 -0.11548114 -0.09995061
0.04765095 -0.11027905 -0.0595007 0.0705005 -0.0883484 0.09266481 -0.06925453 -0.13608335
-0.040406596 0.010207684 0.050138198 -0.058263514 -0.102900535 0.07223486 0.007972675 -0.07859716
0.022005575 0.1593515 -0.041930776 0.017763445 0.0025500879 0.077410966 -0.09381487 -0.07413976
-0.010512356 -0.066401005 -0.09050582 0.014466425 -0.025320156 -0.011968223 -0.037283342 0.0983532
-0.10537131 -0.08403338 0.08243113 -0.029473677 -0.06092722 -0.07582961 0.027517667 0.049973525
-0.08762419 -0.023390438 0.13987876 -0.12714803 -0.0021668642 -0.0998571 -0.07439837 0.03688009
0.059212346 -0.1178851 -0.11308547 0.04791666 -0.020527478 -0.0040361937 -0.04514789 0.11258245
-0.05169764 -0.047890548 -0.11224473 -0.122790955 -0.026533423 0.048826136 -0.028718598 0.076492734
-0.009193068 0.121557616 0.092188224 0.10062659 -0.10057843 -0.09596877 -0.0752609 -0.113188766
0.03109972 0.11698812 0.051608577 0.035517305 0.121603616 -0.067689486 0.14042068 0.05357494
0.09806843 0.13973437 -0.052394625 -0.047220964 -0.08297265 0.110690735 0.09683463 -0.10605225
-0.043621417 0.07603597 -0.110488966 -0.07377963 -0.026367199 -0.10454558 0.12264889 8.429221e-05
-0.0112556275 0.04917492 0.09845403 -0.037393775 0.107059985 0.008406592 0.029752024 -0.05750745
0.03845203 0.035331234 -0.04722476 0.0031450293 0.018636309 -0.010434483 0.09815472 0.041704364
0.07037467 0.026334157 0.07092105 -0.057084322 0.07188377 0.069588326 0.030892335 -0.019214362
0.12459125 0.07097933 0.028075924 -0.06981536 -0.051518608 0.09116898 0.07449473 0.13301621
0.007962964 -0.016932972 -0.015852045 0.040813293 0.13353401 -0.014713999 0.06551191 0.13617946
0.08459774 -0.019008191 0.04301844 -0.09258165 -0.052630574 0.102328725 0.14894669 -0.0065681376
0.048190646 0.118636996 0.17249389 0.04349375 0.10278287 0.05687934 -0.06893339 0.07961454
-0.05835594 -0.042722303 0.14832209 0.07493723 0.12543899 -0.103810236 -0.09712053 -0.03535773
-0.027732003 -0.106480226 0.07520157 0.022434425 -0.01503729 0.08965545 0.11223511 -0.13615853
-0.074537836 -0.0683643 -0.026756238 -0.10475195 -0.09597042 0.03610609 -0.030214798 0.080534264
-0.03264686 -0.019717067 0.015432723 0.112969905 -0.064627476 0.018576328 -0.07559863 0.095939875
0.04934475 -0.07696845 -0.07723329 -0.100768425 0.087024696 0.07861865 0.035185315 0.16534951
0.11592298 0.022123756 -0.060230024 0.07725912 0.04028308 -0.016891109 0.02375801 0.01388281
00000000: 371b 0dbe 030f c0bd 1e56 7a3d 92a0 19bb
00000010: cafa e4bd 8acf 47bd 2cc3 073d 04f0 593d
00000020: 26fa 00be 4dcd ae3d 19c1 83bd 0c6e 92bd
00000030: 3c61 8ebd 59dc 983d 45e0 19be b424 c4bd
00000040: 39ca 153d e8b0 e03d cb5b 63bd 3eb5 ef3c
00000050: 7fa6 913c 095a 93bd d134 703c d6bc c9bd
00000060: 54b8 013b 05ed 4b3c dd0b 943d 08a5 cf3d
00000070: 553c 05be 3711 d43d be9c 47bc 4ee4 c5bd
00000080: aeb5 62bc da0c ba3d 428f 04bd ffc4 8d3c
00000090: 8898 c5bd 607d 383d 40e7 233c fa97 7d3d
000000a0: f2ea 66bd 3b03 713d 2098 e9bd 12a7 873d
000000b0: 9dd5 953d 1630 1b3d 5ba8 33bd 2306 7e3b
000000c0: e554 143e 6bb2 cfbb a9b0 953d 8b13 e9ba
000000d0: 8cac d43d 2dc8 723d 6081 ecbd e8b2 ccbd
000000e0: a42d 433d fcd9 e1bd 02b7 73bd 9162 903d
000000f0: 02f0 b4bd 0cc7 bd3d 52d5 8dbd 6f59 0bbe
00000100: 6381 25bd 213e 273c b65d 4d3d b9a5 6ebd
00000110: 84bd d2bd dfef 933d d39f 023c 8cf7 a0bd
00000120: 0945 b43c 0a2d 233e 9bbf 2bbd a584 913c
00000130: 601f 273b a489 9e3d 0322 c0bd 96d6 97bd
00000140: 043c 2cbc 40fd 87bd 1e5b b9bd 9604 6d3c
00000150: 376c cfbc 5e16 44bc 6bb6 18bd 676d c93d
00000160: eacc d7bd b119 acbd a7d1 a83d c872 f1bc
00000170: d28e 79bd 8e4c 9bbd bb6c e13c 0ab1 4c3d
00000180: 5074 b3bd 4e9d bfbc 613c 0f3e 1833 02be
00000190: f301 0ebb e181 ccbd 2c5e 98bd 940f 173d
000001a0: a588 723d be6d f1bd 5b99 e7bd 4244 443d
000001b0: 3e29 a8bc 0c42 84bb feec 38bd a191 e63d
000001c0: e8c0 53bd e128 44bd 91e0 e5bd d379 fbbd
000001d0: 9f5c d9bc eafd 473d 4443 ebbc 39a8 9c3d
000001e0: 869e 16bc 33f3 f83d 2ecd bc3d 5015 ce3d
000001f0: 10fc cdbd 468b c4bd 6322 9abd 83cf e7bd
00000200: d7c4 fe3c 7897 ef3d 8463 533d 987a 113d
00000210: 510b f93d c9a0 8abd 70ca 0f3e 6571 5b3d
00000220: 1ad8 c83d 8716 0f3e bf9b 56bd c56a 41bd
00000230: 91ed a9bd d3b1 e23d 3c51 c63d ec31 d9bd
00000240: 5fac 32bd bfb8 9b3d 0a48 e2bd c619 97bd
00000250: 0600 d8bc fe1b d6bd 572f fb3d 09c6 b038
00000260: 8669 38bc a46b 493d 44a2 c93d 372a 19bd
00000270: 4442 db3d cdbb 093c 84ba f33c ef8c 6bbd
00000280: e07f 1d3d 7cb7 103d c06e 41bd d61c 4e3b
00000290: 2cab 983c 65f5 2abc 5805 c93d 32d2 2a3d
000002a0: 9820 903d bbba d73c 0e3f 913d 40d1 69bd
000002b0: cc37 933d 5384 8e3d ec11 fd3c 7067 9dbc
000002c0: b329 ff3d 9c5d 913d 7bff e53c 5bfb 8ebd
000002d0: 2d05 53bd cdb6 ba3d b190 983d 6735 083e
000002e0: 1777 023c 04b7 8abc 26dc 81bc d72b 273d
000002f0: 24bd 083e fc12 71bc 1c2b 863d a172 0b3e
00000300: 9441 ad3d 11b7 9bbc 1b34 303d 739b bdbd
00000310: 2893 57bd b991 d13d 7b85 183e 8839 d7bb
00000320: 8e63 453d f4f7 f23d 3da2 303e 8126 323d
00000330: d37f d23d 50fa 683d f32c 8dbd f30c a33d
00000340: a306 6fbd 95fd 2ebd bfe1 173e b178 993d
00000350: 1473 003e 769a d4bd 21e7 c6bd 44d3 10bd
00000360: 3a2e e3bc 4e12 dabd 4803 9a3d 66c8 b73c
00000370: f75e 76bc 479d b73d 85db e53d 246d 0bbe
00000380: 4ba7 98bd 9502 8cbd e62f dbbc 3188 d6bd
00000390: 248c c4bd fbe3 133d 0685 f7bc 26ef a43d
000003a0: b7b8 05bd b085 a1bc 88d9 7c3c c45c e73d
000003b0: 695b 84bd 622d 983c 74d3 9abd 207c c43d
000003c0: b81d 4a3d a2a1 9dbd 7d2c 9ebd ad5f cebd
000003d0: 013a b23d d102 a13d 7a1e 103d 6251 293e
000003e0: 0769 ed3d e13c b53c c2b3 76bd 083a 9e3d
000003f0: dfff 243d 395f 8abc 28a0 c23c ba74 633c

rnn.weight_hh_l1 f4 [64, 64]
-0.024128431 0.11048878 -0.08623574 0.0317766 -0.072227985 -0.112576574 0.059520397 -0.07927189
0.060139816 0.039391812 -0.08916465 0.07631208 -0.017827468 -0.08898382 0.03822798 -0.04611486
-0.0904659 0.091605484 -0.13286795 -0.061452955 0.035727907 0.057145838 -0.032774467 -0.012143781
0.0021517011 -0.10321224 0.008339107 -0.021520177 -0.07615492 0.051468626 -0.075701445 0.019667106
-0.08784567 -0.11764354 0.08496661 0.017088784 -0.07107008 0.05341893 0.12616457 -0.027288906
-0.022477474 0.010575102 -0.07103412 -0.08756852 -0.027643304 0.054026082 0.06666485 -0.044588838
0.05479739 0.108667746 -0.0012068657 0.11938325 -0.12873513 0.016330864 0.11681525 -0.108801715
0.09013805 -0.016049948 0.031349912 0.1094128 -0.030973738 0.10615387 0.06091132 -0.08061007
-0.06159756 -0.018669542 0.15773505 -0.044167027 -0.12208409 -0.028396208 -0.1165647 0.050502818
-0.044439018 0.15412536 -0.0041781627 -0.0081900945 -0.006315096 0.067108035 0.04394139 0.0073139323
0.11926442 0.1152932 -0.0469897 0.090716645 0.022420054 -0.035942268 -0.030045452 0.026291635
-0.093949325 -0.07881209 -0.076373294 0.0033017013 -0.02985328 0.09357406 0.11702747 0.11308198
-0.0030240542 0.11271334 -0.11108113 0.023857567 0.057878554 0.007524529 0.04998485 0.0666289
0.094322205 -0.038088854 -0.0019203457 0.05839803 -0.057499874 0.100672714 0.105034046 0.076125115
0.018814977 0.09617145 -0.085575044 -0.034192014 -0.037138246 0.07798512 0.1272303 0.108268686
0.06894061 0.03385795 0.11147473 -0.020959536 0.03896684 -0.1444684 0.006731521 -0.05331106
-0.08033208 0.09947266 0.14647318 -0.03712795 0.082458384 0.028987696 -0.08613499 0.08501181
0.093324795 0.12757412 0.073854886 0.13694656 -0.053103436 -0.011671535 0.13715477 0.0019699032
-0.057460073 0.16628022 0.073998496 -0.082098335 0.0077555063 0.15256824 0.06704872 -0.07252118
-0.058071125 -0.09207709 0.15267865 -0.05220516 0.14617746 0.033285998 -0.009689647 0.053115465
0.091609225 0.11546198 -0.07634722 0.0783528 0.14010286 0.1125577 0.04127793 0.024697825
-0.034034915 0.14170286 -0.112224534 0.113486 -0.06382518 0.12822485 -0.04632367 -0.08166374
0.09078957 0.086550154 0.06814893 0.13358475 -0.116547674 0.079643406 0.008278005 0.0014995883
-0.021837728 -0.005384595 -0.03581716 -0.0036633913 -0.080719806 0.062310863 -0.024471328 0.098486096
0.115392596 0.067886636 0.12775579 -0.12272409 -0.07308095 0.042604767 -0.039432302 -0.04951756
0.0401127 0.03325224 0.07362929 0.0056575234 0.10257802 0.045025967 -0.008397239 0.012737033
0.031319667 0.038373105 -0.03350966 0.105178386 -0.056378484 0.09459368 0.107703894 0.022255499
0.038689394 0.023600604 0.033448063 0.01585826 -0.08832874 -0.025107061 -0.05938393 0.035264704
-0.005582295 -0.11673461 0.1339213 0.06535291 0.047151066 -0.016653765 0.14879742 0.12887949
0.05858992 0.015312848 -0.027226523 0.12677725 0.025795171 0.13090228 0.028390521 0.048727572
0.13404162 0.04718458 -0.07453871 0.070654765 -0.014422101 -0.007748239 0.062174667 0.08788144
-0.036094245 0.10468574 0.04748894 0.06103157 0.0107019935 -0.0815626 0.066479884 0.07381839
00000000: fda8 c5bc f147 e23d 5d9c b0bd 2e28 023d
00000010: 44ec 93bd 8c8e e6bd a9cb 733d 4d59 a2bd
00000020: 2b55 763d 4f59 213d f59b b6bd 8249 9c3d
00000030: e90a 92bc 263d b6bd f194 1c3d efe2 3cbd
00000040: 3046 b9bd a89b bb3d 890e 08be 18b6 7bbd
00000050: 6d57 123d c111 6a3d 853e 06bd b6f6 46bc
00000060: 8e03 0d3b f060 d3bd c0a0 083c 154b b0bc
00000070: 1cf7 9bbd c4d0 523d 5c09 9bbd e91c a13c
00000080: 6ee8 b3bd 19ef f0bd f902 ae3d c7fd 8b3c
00000090: 318d 91bd cfcd 5a3d 4931 013e fc8c dfbc
000000a0: ae22 b8bc 3143 2d3c 567a 91bd 2057 b3bd
000000b0: 3674 e2bc 744a 5d3d 9587 883d c9a2 36bd
000000c0: 3a73 603d 328d de3d b12f 9eba 357f f43d
000000d0: 24d3 03be 4ec8 853c d53c ef3d 6fd3 debd
000000e0: 4c9a b83d 2e7b 83bc c468 003d d113 e03d
000000f0: a3bc fdbc 3367 d93d 267e 793d e416 a5bd
00000100: b94d 7cbd def0 98bc 4c85 213e 7ce8 34bd
00000110: 3907 fabd 2a9f e8bc 79b9 eebd 0bdc 4e3d
00000120: b005 36bd 0ad3 1d3e f8e8 88bb bf2f 06bc
00000130: ddee cebb f06f 893d e3fb 333d b6a9 ef3b
00000140: e740 f43d d71e ec3d 4678 40bd a6c9 b93d
00000150: 43aa b73c 3338 13bd e121 f6bc 8e61 d73c
00000160: 8168 c0bd 3c68 a1bd 9a69 9cbd 5b61 583b
00000170: de8e f4bc c2a3 bf3d 19ac ef3d 8697 e73d
00000180: 362f 46bb 40d6 e63d 817e e3bd f270 c33c
00000190: 1012 6d3d 5390 f63b eabc 4c3d bc74 883d
000001a0: 002c c13d 0f03 1cbd 1cb4 fbba c632 6f3d
000001b0: fd84 6bbd 7f2d ce3d 171c d73d 7ce7 9b3d
000001c0: de21 9a3c 8af5 c43d f841 afbd ed0c 0cbd
000001d0: 461e 18bd aab6 9f3d a948 023e f9bb dd3d
000001e0: bc30 8d3d a2ae 0a3d dd4c e43d 55b3 abbc
000001f0: b19b 1f3d 86ef 13be 1794 dc3b b35c 5abd
00000200: 2585 a4bd 52b8 cb3d 11fd 153e 7a13 18bd
00000210: f1df a83d 9b77 ed3c 8b67 b0bd ac1a ae3d
00000220: 1221 bf3d caa2 023e 3b41 973d b83b 0c3e
00000230: fd82 59bd f739 3fbc 4d72 0c3e 7e19 013b
00000240: 415b 6bbd 5d45 2a3e 868c 973d 2c23 a8bd
00000250: e721 fe3b d93a 1c3e d750 893d fc85 94bd
00000260: fddb 6dbd ea92 bcbd cb57 1c3e 14d5 55bd
00000270: 8baf 153e e656 083d 53c1 1ebc 9a8f 593d
00000280: 9e9d bb3d 5577 ec3d ee5b 9cbd 6f77 a03d
00000290: 2077 0f3e a784 e63d 0c13 293d 1853 ca3c
000002a0: 3268 0bbd 8e1a 113e fad5 e5bd 596b e83d
000002b0: c7b6 82bd 604d 033e e3bd 3dbd 523f a7bd
000002c0: e2ef b93d 3541 b13d ab91 8b3d 71ca 083e
000002d0: 8cb0 eebd 151c a33d 78a0 073c d58d c43a
000002e0: 09e5 b2bc 4271 b0bb 04b5 12bd 8215 70bb
000002f0: 6d50 a5bd ad39 7f3d 1878 c8bc 14b3 c93d
00000300: f452 ec3d 2608 8b3d 6ad2 023e c556 fbbd
00000310: 77ab 95bd 5682 2e3d c483 21bd edd2 4abd
00000320: 374d 243d 8033 083d f4ca 963d bf62 b93b
00000330: 6d14 d23d 266d 383d 9394 09bc fdae 503c
00000340: 0d49 003d 1e2d 1d3d 6d41 09bd c467 d73d
00000350: 20ed 66bd 55ba c13d dc93 dc3d 2a51 b63c
00000360: c578 1e3d 0e56 c13c d600 093d 2fe9 813c
00000370: b3e5 b4bd 53ad cdbc 903c 73bd b971 103d
00000380: afeb b6bb 8e12 efbd aa22 093e bfd7 853d
00000390: 7a21 413d 7a6d 88bc 5a5e 183e fcf8 033e
000003a0: fcfb 6f3d bde2 7a3c 280a dfbc e5d1 013e
000003b0: 6550 d33c 3f0b 063e 3d93 e83c 9096 473d
000003c0: 3542 093e 9e44 413d c0a7 98bd 72b3 903d
000003d0: ad4a 6cbc f1e4 fdbb ddaa 7e3d 2ffb b33d
000003e0: 8fd7 13bd 7a65 d63d c383 423d 3dfc 793d
000003f0: 6a57 2f3c 4b0a a7bd 9b26 883d 192e 973d

rnn.bias_ih_l1 f4 [64]
0.0006532592 0.07498994 -0.036059294 0.0794802 -0.020909773 0.023617897 0.06873767 0.03335056
-0.049742576 -0.0874387 0.110411875 -0.053104613 0.053537246 0.022743676 0.09377389 0.06112359
-0.025451105 -0.12523155 -0.0065224534 0.11640433 -0.109079316 -0.06470789 -0.03041583 -0.037115455
0.102177195 -0.080715925 -0.004265483 -0.109626666 0.0018180718 0.0354189 -0.095958725 -0.11965361
0.07034032 -0.00021849362 0.049660258 -0.085107684 -0.05595966 0.028373186 -0.04113268 -0.026117938
-0.09810132 0.0143434685 0.04569495 -0.05863447 -0.105730996 -0.1031376 -0.079605535 0.05036548
0.090198904 -0.07405563 0.08801238 -0.08401651 0.009741451 -0.06396139 0.10130228 -0.033704273
0.06163318 -0.07372342 -0.11592598 0.08742872 -0.093176045 0.11792979 0.013911993 -0.034940735
00000000: 7c3f 2b3a 5394 993d e9b2 13bd 84c6 a23d
00000010: f94a abbc 527a c13c 56c6 8c3d 999a 083d
00000020: dfbe 4bbd 1013 b3bd 9f1f e23d 3984 59bd
00000030: df49 5b3d f250 ba3c 860c c03d bb5c 7a3d
00000040: d67e d0bc b33c 00be 4eba d5bb 6565 ee3d
00000050: fa64 dfbd 9285 84bd 9e2a f9bc 6006 18bd
00000060: 4742 d13d 644e a5bd 77c5 8bbb f283 e0bd
00000070: 5e4c ee3a 6913 113d 0286 c4bd f40c f5bd
00000080: 960e 903d 6f1b 65b9 8e68 4b3d f04c aebd
00000090: f535 65bd e26e e83c be7a 28bd 49f5 d5bc
000000a0: 58e9 c8bd de00 6b3c a12a 3b3d b32a 70bd
000000b0: 7e89 d8bd ce39 d3bd 3a08 a3bd 094c 4e3d
000000c0: 34ba b83d 7aaa 97bd d63f b43d d910 acbd
000000d0: 9b9a 1f3c 30fe 82bd 9277 cf3d 7e0d 0abd
000000e0: 1373 7c3d 4efc 96bd 9a6a edbd d40d b33d
000000f0: 15d3 bebd 2c85 f13d 21ef 633c 041e 0fbd

rnn.bias_hh_l1 f4 [64]
0.0073335753 0.04724704 -0.07756614 0.0026748013 0.048671905 -0.05634356 -0.03428155 0.07403687
-0.104916915 0.014805281 -0.037749562 -0.11535 0.06632907 0.103938006 0.116526574 0.08187297
0.04097888 -0.09329718 -0.04105498 0.09286932 -0.082829416 -0.12237672 0.025134588 -0.10598531
0.13304554 0.06767486 -0.023381174 -0.043211997 0.029772291 0.06576345 -0.0678842 -0.009491488
-0.013894231 0.042278282 -0.02867739 -0.0023688122 0.037713993 -0.050315484 -0.10836113 -0.10508067
-0.077195145 0.07857072 0.0550447 0.0026957092 0.04060441 -0.033687506 -0.08309895 -0.06501122
0.049565267 -0.089960776 0.08797088 -0.118786685 0.053925406 -0.08832921 -0.12722711 0.112187445
0.042036604 0.08620369 -0.105739266 0.047195166 0.077382244 0.0821652 0.054803003 -0.013584481
00000000: 7d4e f03b 1d86 413d ffda 9ebd b84b 2f3b
00000010: 315c 473d 81c8 66bd d06a 0cbd a4a0 973d
00000020: aede d6bd d991 723c 499f 1abd 9f3c ecbd
00000030: 89d7 873d 73dd d43d 7ca5 ee3d 04ad a73d
00000040: 78d9 273d 9812 bfbd 4429 28bd 4532 be3d
00000050: 78a2 a9bd a5a0 fabd 0de7 cd3c d40e d9bd
00000060: 173d 083e 1e99 8a3d e089 bfbc 10ff 30bd
00000070: 05e5 f33c fdae 863d df06 8bbd 3082 1bbc
00000080: a1a4 63bc fe2b 2d3d d9ec eabc 133e 1bbb
00000090: fd79 1a3d 9c17 4ebd 71ec ddbd 8934 d7bd
000000a0: 7d18 9ebd b0e9 a03d 8d76 613d 7faa 303b
000000b0: cf50 263d e9fb 09bd c82f aabd 9a24 85bd
000000c0: f304 4b3d 5b3d b8bd 142a b43d 6f46 f3bd
000000d0: e3e0 5c3d f2e5 b4bd d347 02be 88c2 e53d
000000e0: 932e 2c3d 8f8b b03d d48d d8bd b84f 413d
000000f0: 957a 9e3d 3a46 a83d 1d79 603d 7191 5ebc
